fno/models/Burgers_1d/model_weight.ckpt (torch, 555634 bytes, 27 tensors)

fno.0.local_func.weight f4 [32, 32]
00000000: 2a21 f9bd a470 00be 9e65 d83c 2b51 1fbe
00000010: 3623 f13d bb32 813c 537d f5bc 69c7 12be
00000020: cfbd bdbd 49e1 d4bd 5cb3 bebc 8b15 ef3d
00000030: 5b1b 1f3e b902 f2bc c5e0 12be 51a5 9e3d
00000040: f86e aebb 81a2 8f3d cfad 89bd bc65 0dbe
00000050: e7e9 f83c 160d ca3d c91f de3d 0436 d9bd
00000060: 7ad3 ab3c 4f37 2d3e efea e5bd b1f5 f2bd
00000070: 529b 053e 38d1 0dbe d560 0e3e 5da6 bfbd
00000080: a33e 543c 7490 32be 4e95 d93d 0e3d 9bbb
00000090: c4db c43d eb05 b03a 6d5c e93d ed9c 08be
000000a0: fc6f 36bd fcd0 14be eb21 203e 5ca0 183e
000000b0: 9191 83bd 888d 39be 3fc0 b9bc f3da d63d
000000c0: 6577 3c3d e662 163e 83c4 13be e727 fd3d
000000d0: 1f96 f9bd 8f2f b4bc 83f0 fb3d 8133 ec3d
000000e0: f7b6 a7bd 41ee 223e 50f7 d8bd 58ee 35bc
000000f0: 833f b73d 8b89 01be 8b9c f03d 9bee 09be
00000100: e71f f93d e5d7 78bd 4ffd 113e 5cbe 303e
00000110: 656d 68bc 9130 133e 5013 c83d 2608 093a
00000120: 2bd6 073e 6eeb 443e 341c 38bd 1895 473e
00000130: 255c ae3c dcee 973d 8d9b 173e 2a4c 3fbd
00000140: 01b6 f5bc 2bf4 debd 1d19 d83d 9af9 23bd
00000150: f00a a03d 7038 9a3d 28f9 2a3e 5e7d e2bd
00000160: 1207 2dbd 6a35 b0bd 9c39 36be 8a11 c33d
00000170: b8b0 a4bd 1493 c4bd 5c2a e53d 17fb aabd
00000180: 74a0 2abe e9dd 9abd c166 613d 4cfc 0f3e
00000190: ca13 023e a83d 1d3e 3482 fabd a74c a93d
000001a0: b5da 02be f735 303c dbdc 1bbe 9f6e b4bd
000001b0: 8e58 123e d043 a7bd c3e6 e03d cb44 1bbd
000001c0: cf7a a3bc b17c 1fbe 9fa2 83bd df5b 3bbe
000001d0: 46e2 1d3e 8ff9 a2bd 19c5 ddbd f547 0a3e
000001e0: 2702 253e 0286 603d 36b6 b6bc a44f 0a3e
000001f0: c617 193d 72f2 f83d 3f77 4f3d a9c0 853d
00000200: bb1c 99bd 2b71 e83d bb6b 323e 7498 313d
00000210: 3b79 a23b e3f6 223d cd14 293d b7f7 e7bc
00000220: b714 06be 8be8 2f3e 48f1 3b3d c874 f6bd
00000230: 5075 d3bb 9d76 dcbd a9bd 013e 5bbd a83c
00000240: 702f 35be 742f 843d a860 233d 4289 013e
00000250: 86da 4fbd 6fad 413d 7883 0a3c dd1f babd
00000260: ca9c 10bd 34c9 22be 07ee 653a 0d19 003e
00000270: c385 9c3d 1e3e e73d 7f85 123e b88d 85bd
00000280: 3807 7f3d f643 18be 205d 00be 7f81 f7bd
00000290: 118d 153e 7dbd 1e3e 750b 15bd 2f77 f0bc
000002a0: df94 22bd cf6c fc3d e616 533d b2f4 bc3c
000002b0: 4317 6a3d 1fbf a03c 71a1 47bc c69b f7bc
000002c0: 6117 eb3b 11d6 443d 753f a7bc d631 383e
000002d0: 1c56 73bd 1dbe 313e a113 513d 71ea b53d
000002e0: eec2 103e ece2 213d 4cf5 7abd 1465 33bd
000002f0: a5c0 7fbd facb 00be efda 00bd 3985 083e
00000300: 209c 073e 4e55 b0bd 943c 133d bc2c ec3d
00000310: 7720 7dbd c15c dbbd 2c37 af3c 2564 903d
00000320: 6ce6 a53d 9f09 ccbd 9b32 a53c 29e9 72bd
00000330: 9a8b 91bd a1ff ab3d a749 b73d 0725 37be
00000340: 7f1e bf3d 0958 433d e68e 003d e76e db3d
00000350: 996b 07be 9ada afbc 7182 02be a631 7cbc
00000360: 2083 a93d 038c ddbd a636 203e f6de 243e
00000370: 4666 13bd 2953 f8bd bca7 11be aeba 953d
00000380: 4e23 cf3a c846 ec3d 444d 303d 7e64 aa3d
00000390: be79 b83d 4e0d c03d 4807 04bd b98f d73d
000003a0: f7b3 24be f42b 833d 345d b4bb 3d75 ed3c
000003b0: 7098 3f3e 3d2d 1c3e c43f 6f3d 284a 0b3e
000003c0: b349 2a3e 6cd4 4abc 17d4 be3d b2b9 aa3d
000003d0: 0e4b 183c 97e0 b93d 68d1 9f3d ec9a 9fbd
000003e0: b348 313e 0ba3 c23d 22db a43a bdb4 883c
000003f0: 14d2 24bd d5c0 a6bc 0f1c 8abd aecc 553d
-0.12164529 -0.12542969 0.026415642 -0.15558307 0.11774294 0.01577126 -0.029966986 -0.14333881
-0.09264719 -0.10394532 -0.023278885 0.11674031 0.15537779 -0.029542314 -0.14343555 0.07746375
-0.005323287 0.07013417 -0.067226045 -0.1380834 0.03038497 0.09865777 0.10845906 -0.10606006
0.020974863 0.1691563 -0.11226451 -0.11863268 0.13047531 -0.13849342 0.13904126 -0.09357903
0.012954387 -0.17437917 0.10624181 -0.004737503 0.096122295 0.0013429498 0.11394582 -0.13341112
-0.04454039 -0.14532846 0.15637939 0.14904922 -0.06424249 -0.18120396 -0.022674678 0.1049098
0.0460123 0.14686164 -0.14430432 0.123611264 -0.121868365 -0.021995334 0.12301733 0.11533261
-0.08189195 0.15911199 -0.10594046 -0.011104189 0.08947661 -0.12650125 0.11748608 -0.13469927
0.12164288 -0.060752768 0.14256786 0.17260116 -0.014186238 0.14373995 0.097693086 0.00052273495
0.13265292 0.19230434 -0.04494877 0.19490469 0.021284172 0.07418606 0.14805432 -0.046703495
-0.029994013 -0.10886415 0.10551665 -0.04003296 0.07814586 0.07530296 0.16696608 -0.11059068
-0.04224307 -0.08603938 -0.17795414 0.0952483 -0.08041519 -0.095983654 0.1118972 -0.08348673
-0.1666277 -0.07561857 0.055029634 0.14061087 0.12702861 0.15355551 -0.122318655 0.082665734
-0.12778743 0.010755054 -0.15220968 -0.08810162 0.14291593 -0.08167231 0.10981514 -0.037907403
-0.01995602 -0.1557491 -0.06427502 -0.18296765 0.15418348 -0.07957756 -0.10828609 0.13504012
0.16114102 0.0548153 -0.022303682 0.13506943 0.037376188 0.12155618 0.05065083 0.06530888
-0.07476183 0.1134971 0.17423908 0.04335828 0.0049582995 0.03978623 0.041279603 -0.028316362
-0.1309384 0.17178552 0.0458844 -0.12033993 -0.0064531937 -0.10764811 0.12670006 0.020598104
-0.17693877 0.064543635 0.0398871 0.12650016 -0.05074551 0.04728454 0.008454196 -0.09088109
-0.035305776 -0.15897065 0.00087711256 0.12509556 0.076427005 0.11291145 0.14308737 -0.06521171
0.062262744 -0.14869675 -0.12535524 -0.12085246 0.14604594 0.15501972 -0.03638788 -0.029353706
-0.039692756 0.12325441 0.05153551 0.023065899 0.05715109 0.019622384 -0.012184487 -0.030225646
0.007174418 0.048055712 -0.020416 0.17987761 -0.059408292 0.17357679 0.05104411 0.08882607
0.1413686 0.03952305 -0.06126909 -0.043797567 -0.06243958 -0.12577811 -0.03145879 0.1333207
0.1324315 -0.086100206 0.035946444 0.1153197 -0.06179854 -0.10711051 0.021388613 0.07050351
0.0810059 -0.099627726 0.020165732 -0.05930439 -0.07106705 0.08398367 0.08949595 -0.17885219
0.093319885 0.04769138 0.03138628 0.10714512 -0.13224639 -0.021466542 -0.12745072 -0.0153926965
0.08276963 -0.10817721 0.15645847 0.16100678 -0.035986207 -0.121252365 -0.14224142 0.07310997
0.0015803368 0.11536938 0.043042436 0.083199486 0.090075955 0.09377538 -0.032233506 0.1052546
-0.16084276 0.06404868 -0.0055042747 0.028986568 0.18710494 0.15251632 0.05841042 0.13602507
0.16629677 -0.012379747 0.09317797 0.083362 0.009295238 0.0907604 0.07803613 -0.07793221
0.17312889 0.09503754 0.0012577514 0.016687745 -0.04023941 -0.020355621 -0.06743633 0.05219715

fno.0.local_func.bias f4 [32]
00000000: edb7 a9bd 78b3 23bc 3219 8c3d 1eba 1d3c
00000010: b2b6 823c e15b 983d ce63 6ebd 8448 0a3e
00000020: f9ff e93d 6ab3 8abd 0a3a fabd 3ae0 4ebd
00000030: db45 4a3d c3ec 143e 6ecf 0bbd ef19 a03c
00000040: 8743 e03b 27fd 89bd 81e6 abbd 8fe1 2e3e
00000050: f89c 94bc 8720 123d 4f60 d53d fe17 a03d
00000060: 0234 d4bb 50cd d93d 8ed6 0fbe 9e72 23bd
00000070: 43b5 9e3c 3828 c6bd b434 aa3d d09a 263e
-0.08287034 -0.009991519 0.06840743 0.009626893 0.015956257 0.074393995 -0.05820065 0.13504225
0.11425776 -0.06772502 -0.12218101 -0.050506808 0.049383026 0.14543442 -0.034133367 0.019543616
0.0068439874 -0.06737738 -0.083935745 0.17078231 -0.018141255 0.03567555 0.1041876 0.07817076
-0.0064759264 0.106348634 -0.1404669 -0.03990423 0.019373542 -0.0967564 0.083108336 0.16269994

fno.0.bn.weight f4 [32]
00000000: e423 873f 0d78 803f ba95 733f e3a0 803f
00000010: 4fd5 7b3f 3bcc 853f 6416 783f c20b 7d3f
00000020: 732c 813f 5df5 7d3f 30e7 813f aec2 7d3f
00000030: c153 813f 7713 7e3f 0105 803f 874e 7f3f
00000040: bfbb 753f 09ff 813f fa25 823f eca3 7c3f
00000050: 870e 813f bb70 7e3f fbfe 853f b9cb 823f
00000060: eb49 7b3f 38e6 7b3f 9f01 823f 2478 833f
00000070: 2190 803f c056 833f 61d8 803f d767 793f
1.0557828 1.0036637 0.9515034 1.0049099 0.9837236 1.0452951 0.96909165 0.98846066
1.009169 0.9920252 1.0148678 0.9912518 1.0103685 0.9924845 1.0001527 0.997292
0.959896 1.0155956 1.016784 0.98687625 1.0082558 0.99390763 1.0468439 1.0218421
0.98159665 0.9839816 1.0156745 1.0271039 1.0043985 1.0260849 1.0066034 0.9742407

fno.0.bn.bias f4 [32]
00000000: c7bb 683d af86 833c 5db2 4bbd def2 9abc
00000010: fd30 2bbc e14a 3a3d d30d 09bd a3d6 08bd
00000020: 9583 a13c 1ead 313d bbf6 143d 7010 d03b
00000030: 76f9 c83c effe a7bb 132f 4d3c 674c 253c
00000040: c258 05bd 3288 90bc 6378 833c a32f 56bc
00000050: 869e 51b9 ccc8 fb3c dda2 543d 70bb 213d
00000060: 287e 093b fb5c 92bc e233 6e3c c40a 203d
00000070: b445 5d3c 67dd bc3b 8cfe 283d 75b1 4f3c
0.056819703 0.016055433 -0.049730647 -0.018914636 -0.010448691 0.045481566 -0.03346045 -0.03340782
0.019716064 0.043377988 0.036368113 0.0063496158 0.024533015 -0.005126826 0.01252343 0.0100890165
-0.03255535 -0.017643068 0.016048616 -0.013072881 -0.00019990848 0.030735396 0.05191313 0.039485395
0.0020979736 -0.017866602 0.014538737 0.039072767 0.013505388 0.005763698 0.04125838 0.012676586

fno.0.bn.running_mean f4 [32]
00000000: 95b7 1ebf 7479 f33d e473 893e e63a 9e3d
00000010: 19a7 fbbd d743 073e f9e8 1dbe e97f 303d
00000020: b0eb 943e 4523 c1bd 87ea 26be 5556 d13e
00000030: 71ad 033e c494 8a3e 26a5 c6bd 6c86 993d
00000040: 2d00 65bf a215 cebe d952 95bc 7765 ddbd
00000050: 9420 febe f76c cf3e bafe b93d 8a64 0c3d
00000060: e0e4 78bd 651b a13d 9e2a 563e 5736 113e
00000070: 29ca 1b3f 5e79 b3be 9e80 d93e bab7 483f
-0.61998874 0.118884 0.2684623 0.07726078 -0.12287731 0.13209473 -0.15420903 0.043090735
0.29086065 -0.09430555 -0.16300403 0.4088618 0.12859131 0.27066624 -0.09699468 0.07496342
-0.89453393 -0.4025088 -0.018227981 -0.108103685 -0.4963423 0.4051282 0.09081788 0.03427557
-0.060765147 0.07866553 0.20914695 0.14180885 0.60855347 -0.35053533 0.4248094 0.78405344

fno.0.bn.running_var f4 [32]
00000000: 27c2 c03d e66e b73d 26ff ae3d 5f71 2f3d
00000010: ae20 9d3d 0614 0f3e bbb8 2a3d bc40 163e
00000020: a833 0d3e 7e71 b03e d3e3 e03d ede1 be3d
00000030: 912c 703d e9e9 0d3e 1a78 063d 3ef6 f53d
00000040: 8d77 693d 5c4a be3d 1976 663e 98a7 8d3d
00000050: a80d 773e 5fbd a53d ce21 283e 2c51 ec3d
00000060: 4aea 303d 5fbf 2b3e 7f56 b33d fb99 0f3e
00000070: d582 e83d 8e8d 333e b18d af3e c05b 353d
0.094120316 0.08956699 0.085447595 0.04283273 0.07672249 0.13972482 0.04168008 0.14673132
0.13789237 0.34461588 0.10980954 0.09320436 0.05863625 0.13858761 0.03282938 0.120098576
0.056998778 0.09291527 0.22505988 0.069167316 0.24126303 0.0809276 0.16419145 0.1153892
0.043192185 0.16772221 0.08756732 0.14023583 0.11353079 0.17534468 0.3428779 0.044276953

fno.1.local_func.weight f4 [32, 32]
00000000: 3f19 b33d 7d48 5e39 deaf 893d fca5 2b3e
00000010: 504e e0bd 48c3 15be 9304 8ebd 9655 173e
00000020: 4e43 0a3e 54b3 2c3e dad2 063c 2d99 853c
00000030: 3128 ad3c 14a7 c3bb a18d 023c 410c 993d
00000040: d71e bebd 1888 7bbd 6139 f3bd 9c06 9cbd
00000050: ec3d 9a38 2cff d33d e155 b63d c324 96bd
00000060: 440c 443c 7751 a9bd cf3f 2b3e 1c1b 163d
00000070: 45ce 3cbd e536 f8bd cbc1 a73d da0d fa3d
00000080: ce3c 4d3e 470b 2f3e b01d 9fbd 30d3 b83d
00000090: 0f74 0abe 304a 1ebd 37da ce3d 43d9 b93a
000000a0: aab9 913c cb1a 3abe 35e7 0a3e de13 64bd
000000b0: 6e9d 083e 7d71 b33d 7ad2 9bbd 8fea 893d
000000c0: a06b d93c dc7e 863d d466 02be 76a8 c1bd
000000d0: bcdb 2ebe ec7e 32bc 0985 52bd afa6 6dbd
000000e0: 492e fabb 6b9e f7bc d30a c6bd 15c5 403d
000000f0: 798a c2bc c8b9 a0bd 1894 ebbd ebe8 d23d
00000100: 40b1 243e 14d6 44bd 5a68 a5bc 540a 54bc
00000110: 481f 88bd d833 473d d2c4 1abe 9f91 b7bd
00000120: 0aaf d9bd abdb 45bd 653e 6ebc ad4e 0ebe
00000130: 4bda 203e e608 093e ffcd 2f3d 99d7 b43d
00000140: f173 b8bd 7735 f93d d123 923d f1bb 333e
00000150: 4cbf 7a3d b6a5 1a3e a85e 453c e6b7 963d
00000160: a26f 0bbb ca3f 2bbc a3d0 443e 747b 20be
00000170: befe d93d 9620 18be 4bc5 cb3c fcd6 41bd
00000180: 886f 1e3e 614e e8bd 00cd cd3c d27f c1bd
00000190: 7bd3 463d b312 9ebb bf64 983d 4374 ebbd
000001a0: 0d7e 203e ee6f c9ba 87be 393e dc31 2ebd
000001b0: 8a73 f3bd b773 62bd bcbf 8abd 20b1 07bd
000001c0: 4a7a 96bd 204d 043c 8934 21bd 91d4 de3c
000001d0: 0f09 d63c 7900 be3b 3fc0 753b 8bce f23d
000001e0: d701 1bbd c54a d23d 3f81 f23c 1e82 233e
000001f0: c1a7 fe3c d2a0 10bb 664d b63d 75dd f63d
00000200: 1d48 103e f125 f43d 36f9 043e 8644 023e
00000210: c56a 5c3d 7bf0 473d 532a 9f3d 0a1d debd
00000220: 512b 183e c5d5 2d3d 686d 34be 0df0 833d
00000230: c8eb 2f3e 6f5f 25be 75ca 7dbd 6458 033e
00000240: f1e0 863d 3da3 52bd d8d4 943d 4f40 e4bd
00000250: 59d5 ab3d 99f0 c7bc 0a8c b4bd 4d37 2abd
00000260: 0a8d 623d 4b5d 2d3d ab8c 51bc fb78 68bd
00000270: f678 063e e7b3 4a3d 3e39 973d 497c 233e
00000280: 23aa 01be 9875 113e f8ae d9bd 7a5c 52bd
00000290: 351e 07be e822 26be b79e f6bd e8ae 56be
000002a0: d178 27be 2ee3 80bd 2446 85bd 1e59 02be
000002b0: d380 be3d 6cc2 133e 5abc 8e3d 04e0 313e
000002c0: ccd4 fbbd ffa3 f83d 6749 25be 70fb 063e
000002d0: c11b c53d 299d 0b3d 6574 e0bc cc8a 4f3d
000002e0: de75 153e 9243 173e 57fb 73bc 8397 1a3e
000002f0: 8e62 d53d b3d1 b1bc 4d5c 823d 7550 093e
00000300: 3ea1 23be df14 dd3d ca5f 163e 1d88 b63d
00000310: a04c d9bd 7bb4 213e f69a 293e a4a7 23be
00000320: 0080 d13c 5df7 b3bd 641b 40be aac0 22ba
00000330: f921 453e fcf5 373e 1097 cebd 0881 0a3e
00000340: 6562 2bbe 80a8 bf3c 0f7e 6c3e d337 07be
00000350: 62d7 ffbd 305d 103e e176 c43d eb8e fabd
00000360: 18c5 013e 0a28 b3bb 6c7e 043e 6e35 673d
00000370: d1c9 af3d b151 0c3d 2707 78bd b969 cabc
00000380: 5e18 e23d 04d0 223e 6dc8 263e 509c 99bd
00000390: 2e12 07bd 9968 06bd 6071 f1bd fa91 52bd
000003a0: 3c98 763d 59cc 08bd f267 863d a2ab 3abe
000003b0: 9acc 9bbc 6a1d 293e 9ff0 b73a 592d 293e
000003c0: 7cfc f1bd 80ed 52bd e462 973c f4b7 c73d
000003d0: 8c12 da3d c165 2abe 061c 50be 6099 dabd
000003e0: 98a6 07be 3192 393e 1a70 1b3e 3581 723c
000003f0: 8c24 973d 5a73 3a3d e084 f33c d0a5 f03d
0.0874505 0.00021198574 0.06722997 0.16762537 -0.10952437 -0.14625275 -0.06934466 0.14778742
0.13502237 0.16865283 0.008228982 0.016308391 0.021137329 -0.005970845 0.007968337 0.0747304
-0.09283226 -0.061409086 -0.118761785 -0.07618448 7.354826e-05 0.103514045 0.08903099 -0.073312305
0.011965815 -0.08267491 0.1672356 0.036646947 -0.04609515 -0.12119845 0.0819126 0.12209673
0.20042726 0.17094146 -0.07769334 0.09024656 -0.13520835 -0.03864497 0.10100215 0.0014179129
0.017788727 -0.18174283 0.13564761 -0.05568301 0.13341305 0.087618805 -0.076085046 0.067341916
0.026540577 0.06567165 -0.12734538 -0.094559595 -0.1707601 -0.010894518 -0.051396403 -0.05802029
-0.007634912 -0.030226907 -0.09670033 0.047062952 -0.02374767 -0.07847935 -0.11502856 0.10298332
0.1608324 -0.048055723 -0.02019136 -0.012941916 -0.066465914 0.048633426 -0.15114143 -0.08963322
-0.10629089 -0.048305195 -0.014541243 -0.138972 0.15708272 0.133823 0.042921063 0.088301845
-0.09006489 0.12168401 0.07135738 0.17552163 0.06121759 0.15102276 0.012046494 0.073592946
-0.0021276255 -0.01045222 0.19220214 -0.15672094 0.10644291 -0.1485618 0.02487435 -0.047324166
0.15472233 -0.113430746 0.025122166 -0.09448208 0.048541527 -0.0048240065 0.07441091 -0.114967845
0.15673085 -0.0015368441 0.18139087 -0.04252802 -0.11887272 -0.055286136 -0.06774852 -0.033127904
-0.073475435 0.008075029 -0.039356742 0.027200969 0.026127366 0.005798396 0.003749862 0.11855801
-0.03784355 0.102681674 0.029602645 0.15967605 0.03108585 -0.0022068513 0.08901481 0.12053958
0.14090009 0.11921299 0.12985691 0.12721452 0.05381276 0.048813324 0.077717446 -0.108453825
0.14860274 0.042440195 -0.1761986 0.064422704 0.17179787 -0.16149686 -0.061960656 0.12826687
0.06585873 -0.051425207 0.07267159 -0.111450784 0.08390302 -0.024406718 -0.08815773 -0.041556645
0.055310287 0.0423253 -0.0127898855 -0.056756 0.1313208 0.049487974 0.07383965 0.1596538
-0.12662558 0.14205015 -0.10629076 -0.051357724 -0.13195117 -0.16224253 -0.12041991 -0.20965159
-0.16354682 -0.06293331 -0.06507519 -0.12729308 0.09301915 0.14429635 0.06969519 0.17370611
-0.12296447 0.12140655 -0.16141282 0.13181853 0.09624434 0.034085426 -0.027399251 0.050669476
0.14595744 0.1477187 -0.014891467 0.1509686 0.104191884 -0.021706438 0.06365261 0.13409598
-0.15979478 0.107949965 0.14684978 0.0891268 -0.10610318 0.15791504 0.16563019 -0.15981919
0.02557373 -0.08787415 -0.18760449 -0.0006208519 0.19251241 0.1796493 -0.10087407 0.13525784
-0.16736753 0.023395777 0.23094963 -0.13204889 -0.12492253 0.14098048 0.09592987 -0.12234291
0.12672842 -0.0054674195 0.12938851 0.05644744 0.08583415 0.034257594 -0.060553696 -0.024708616
0.11039804 0.15899664 0.16287394 -0.07500517 -0.032976322 -0.032814596 -0.11789203 -0.051408745
0.060203776 -0.033398006 0.06562795 -0.18229535 -0.01901846 0.16515127 0.0014033503 0.16521205
-0.11815736 -0.05149603 0.018479772 0.09751883 0.10648069 -0.16640379 -0.2032319 -0.10673785
-0.13247144 0.18122174 0.15179482 0.014801313 0.07380018 0.045520164 0.029726446 0.11750376

fno.1.local_func.bias f4 [32]
00000000: f2ef d3bd 754d 973d a424 d1bd 9bb0 9f3d
00000010: a881 24be 8e19 033d 6b68 823d 9265 87bd
00000020: 2c77 2dbe 9f08 863d 11f3 2e3e 5809 18be
00000030: 0d76 ebbd fe4a 033e 66f7 8f3d d6b2 2cbe
00000040: 9756 cdbd 914a 633d 1efd ea3d e2bb a1bd
00000050: 4afc ad3d 57d9 95bd 1a29 5abd 960d b2bd
00000060: a468 a3bd 25b0 b43d 3814 e9bd 59dd 183e
00000070: c765 ca3d ee4b 0e3e 221a febd d965 d43d
-0.103485 0.07387821 -0.10212067 0.07797357 -0.16065085 0.032006793 0.063675724 -0.0661117
-0.16939992 0.06544613 0.1708491 -0.14847314 -0.11497126 0.12821576 0.070296094 -0.16865095
-0.10026281 0.055491034 0.114740595 -0.07897164 0.08495386 -0.07316845 -0.053261854 -0.086939976
-0.07978943 0.088226594 -0.113808095 0.14928187 0.09882694 0.13896152 -0.12407328 0.103709884

fno.1.bn.weight f4 [32]
00000000: cf96 823f a970 7d3f 7c4f 843f f00b 813f
00000010: 8440 833f d9a4 803f 3729 7f3f d4d9 803f
00000020: 3adb 793f 17d4 833f ad6a 7d3f 4dee 803f
00000030: 8411 813f ef2d 7f3f d619 7d3f ed60 793f
00000040: 1de0 803f 46e9 753f a6f7 813f b4e5 823f
00000050: bb39 7f3f 1330 7f3f e69d 813f 6536 763f
00000060: d9aa 803f 91db 793f 6e12 843f 71a6 7a3f
00000070: a98a 7d3f d70a 803f 55da 7d3f dfad 783f
1.0202273 0.9900003 1.0336757 1.0081768 1.0254064 1.0050308 0.99672264 1.0066476
0.9760014 1.02991 0.989909 1.0072724 1.008347 0.99679464 0.9886755 0.9741352
1.0068394 0.9605907 1.0153701 1.022635 0.99697465 0.9968273 1.0126312 0.9617675
1.0052139 0.97600657 1.0318124 0.9791022 0.99039704 1.0003308 0.99161273 0.97140306

fno.1.bn.bias f4 [32]
00000000: 4a65 2dbd 79da 923c 4457 0b3d c133 01bd
00000010: 9c84 6ab9 feba 7a3c aaea 07bc 2d4c db3c
00000020: a130 f3bc 7cfa 013d a62a 0fbc 6888 9c3c
00000030: 413a 0c3d c010 e63b 031c dd3c f196 7cbc
00000040: 1b97 213d 23a3 b83b 5acd 2d3c 4415 5a3c
00000050: 7cc4 9d3c 8e7e a23a e61a a13c 0f1f bbbc
00000060: 8e36 f4bb e21a 78bc 3baf 023d d2e8 81bc
00000070: 06b2 fa3c 8275 f13b 8313 203d 0858 f6bc
-0.042332925 0.017926442 0.03401877 -0.031543497 -0.0002236538 0.0153033715 -0.008295694 0.026769722
-0.029686274 0.03173302 -0.0087381955 0.019108012 0.034235243 0.0070210397 0.026990896 -0.015416847
0.039450746 0.005634682 0.010608042 0.013310734 0.01925873 0.0012397335 0.019666146 -0.022841958
-0.0074527925 -0.015143128 0.031905394 -0.015858088 0.030602466 0.0073687444 0.039081108 -0.030071273

fno.1.bn.running_mean f4 [32]
00000000: cc0d 073f 73b7 dbbd bcca e53d f5f5 8d3f
00000010: 3cc9 7a3e c457 9b3e c309 e13e 404a bfb7
00000020: 61c2 b43e bc18 683f 1d17 263f 8099 85be
00000030: 9615 1abf 2305 b13e 5bf1 40be 6285 1abf
00000040: 9407 103f 5924 e8bc b7f1 553f e98d 293e
00000050: bf67 ef3d 1350 903e 89b9 90be db77 b6be
00000060: 16a8 6fba c882 b3bc 8770 8d3e 0116 4cbf
00000070: 7c0e fbbc 5e3e e0be 2d02 0bbf 7617 353e
0.5275543 -0.107283495 0.11220309 1.1090685 0.24490827 0.30340397 0.4395276 -2.280355e-05
0.3530455 0.9066274 0.6487902 -0.26093674 -0.6018919 0.34574232 -0.1884207 -0.60359776
0.56261563 -0.028337644 0.8357195 0.1655804 0.1168971 0.28186092 -0.28266552 -0.35638317
-0.0009142173 -0.021912947 0.27624914 -0.79721075 -0.030646555 -0.43797582 -0.54300195 0.17684731

fno.1.bn.running_var f4 [32]
00000000: 198c d23e dab3 833e 621d 313f b711 993e
00000010: 908d f33e 6c84 3b3f f4e0 313f 74e6 1e3f
00000020: edec 693e 7c70 003f 9700 bc3e b807 2a3f
00000030: e324 513f 5648 b63e f2f0 043f fe2c 2f3f
00000040: e9fd 083f 3f80 d53e 0f15 fc3e 0c92 1a3f
00000050: f507 113f 5741 e73e 229c d53e 7ddf 9c3e
00000060: 70de 1c3f 0e09 883f 2540 4c3f 3876 2c3f
00000070: 4f37 2c3f 63ff 353f 5233 3b3f b402 983e
0.4112251 0.25723153 0.6918546 0.29896328 0.4756894 0.73248935 0.69483876 0.62070394
0.22844286 0.5017164 0.367192 0.6641803 0.8169691 0.35602063 0.51930153 0.6842803
0.53512436 0.41699407 0.49234816 0.603791 0.56652766 0.45167038 0.41720682 0.30639258
0.6127691 1.0627763 0.79785377 0.6736789 0.67271894 0.71092814 0.73125184 0.29689562

fno.2.local_func.weight f4 [32, 32]
00000000: 7fdf b63d d213 fabd 3497 cb3d de8a 80bc
00000010: bda3 1bbd e664 cebd aa1c 09be a252 3b3e
00000020: 4d4b f8bc c7c8 ce3c 294f a9bc acfb 10be
00000030: ceb2 a63d 6858 8d3d 9c81 243e 42be 9ebd
00000040: 7831 40be abb2 493d ddb6 22be 9900 953c
00000050: 82f4 143d ad66 05bc 4c03 1abe edcc f1bd
00000060: e266 5e3d 1289 fe3d 70fa bb3d 7e4f 1dbe
00000070: 5bbe 413d c255 9fbc 4572 6fbd 715e 6cbc
00000080: 032f 4e3e 7707 833d c10d 373e 8bfe b03d
00000090: 6f98 013e 4470 c63d c932 c8bc d035 a4bd
000000a0: fe20 62bb f875 49be e688 f2ba b088 54be
000000b0: 8e53 de3d 41b0 d6bd f236 953d 1d03 1b3e
000000c0: f7a9 70bd b45f c53d ae26 75bd 194c 9b3d
000000d0: 8298 4fbd 23ca 33bd 2fc7 0f3d cb81 cc3d
000000e0: c966 d83b 5996 f33d 42ef a63d d31c a43c
000000f0: a6e6 8abc f5b0 04bd 4315 803d e6f8 ac3d
00000100: f574 563e ff80 ae3d 279a 373e 4f1f d4bd
00000110: 20d5 3dbd 60a7 19bd ba1d c9bd 3820 06bd
00000120: 6796 65bd 552f 2d3e 254f a43d ccbf cfbd
00000130: d6d1 16be e17b 463d 9eea c03d d13e e73c
00000140: 6336 443e 5209 2abd e9d8 9f3d 78ad d33d
00000150: fcd7 06bd 715b 353e 5f05 413e ab15 5e3d
00000160: 772a fcbd ee78 d6bd f8e4 9ebd ad75 2dbd
00000170: 9cf7 253e 9324 26be 162e f6bd 030c debd
00000180: c37f 8cbd a4be f6bd b1c6 2b3e a18d 38bd
00000190: 9787 253d 3c30 e13d 1fd2 2cbd 0974 393e
000001a0: b8d0 a23d 644c 2abe d4b9 c4bd 36b9 32be
000001b0: 50bb dcbd f726 a33c b417 b43d 7ec5 52bd
000001c0: baa0 21bd b94d 8b3c 97f7 b93d 948f 1fbe
000001d0: 1d45 88bd 367f f9bd 1857 e6bd e6d6 bfbd
000001e0: d74b c73d 3ec7 d1bd d9fc b63c fd59 3c3d
000001f0: f6bf 11be c544 d93d 9c18 323d 8dfc 8c3d
00000200: 1d10 253e cf4c 1cbd 2538 cf3d 13f8 cb3d
00000210: 921b c43d 570f 23bd 850c 1b3e 7170 2b3e
00000220: 0c59 073e c81e b5bc a528 f83d 0743 523d
00000230: 01aa 8d3d 7a17 353e c2d8 023d 9e25 01be
00000240: d021 403e 87c3 65bc d4f0 1fbd 75f1 10be
00000250: bec8 fc3d c15d fcbd 68e1 303e 287e e33b
00000260: 239c 90bd 197a 05be c687 243d 49e6 0c3e
00000270: feff 9dbc b927 5ebc 5af0 b43d e7ae ed3d
00000280: f12e 453d 30ad ebbd 3596 e23d 2628 f03d
00000290: 76e6 dbbd d69e 693d 2b7c 1a3e e2d5 f03d
000002a0: 6f54 13be 4636 983d 39b4 08bd 5b13 05be
000002b0: 3a8a 38bc 1f23 fbbc 7896 0ebd a748 483d
000002c0: 2b19 223e ad5b c93d 0919 303e b510 513d
000002d0: ef69 453c 6bc2 163e 93db 833d 885c e3bd
000002e0: 82e1 8a3d d1d3 a03d 30bb 953d 2321 dc3d
000002f0: 1eff 7abd 7410 2f3e e571 0b3e 2eb4 cbbd
00000300: ad2f b03d 8eb5 d8bc 1bca 293d e39f 3a3d
00000310: ac86 e6bd 37cb 8ebd 4af7 e2bd 1f16 113d
00000320: 6d50 ddbc 1dc3 3a3d c03f 993b 6e8a f33d
00000330: f3c7 bfbd c844 68bc 34b3 2a3e 7897 a0bc
00000340: f92b d83d 738d a33c 3cd0 efbc 4270 233c
00000350: 459c 173e ee8d 1cbd 8f63 b33d a9f7 5abd
00000360: 5257 ebbd ea0e 283e 3239 e43d eb9a 3cbc
00000370: 53d9 f83d f9e1 46bd b251 b83d 7fb6 22be
00000380: a1af 8abc fc2d 54be 5def bf3d 4c44 0e3d
00000390: 6c08 f1bb a4b9 82bd b3af b5bd 3d1e 10be
000003a0: 8779 34be 7148 c1bd 49c0 15be 36bd 793c
000003b0: c126 153e 8f22 703c 9a06 423e 1e4c ba3c
000003c0: 6cd7 24be f9e7 83bd d7c6 f1bd 7f65 22bd
000003d0: b1d4 42bd aa62 23be a9eb 6b3d f002 a63b
000003e0: d73f e63d 3f80 5ebd 4703 9ebd dedc 7abd
000003f0: 1f84 273e 04cf a7bc 667a 43bd 5ec8 443d
0.08929347 -0.12210812 0.09940949 -0.015691217 -0.03799795 -0.100778386 -0.1338984 0.1829324
-0.030309344 0.025242222 -0.02066763 -0.14158505 0.08139573 0.06901628 0.16065067 -0.077511325
-0.18768871 0.049242657 -0.1589007 0.018188762 0.036365993 -0.008142156 -0.1504032 -0.118066646
0.054297335 0.12428488 0.091786265 -0.15362355 0.047300678 -0.019450072 -0.058458585 -0.014426813
0.20135121 0.06397908 0.1787634 0.086423 0.12655805 0.09689382 -0.024438279 -0.080180764
-0.0034504528 -0.19673908 -0.0018503934 -0.20755267 0.108557805 -0.104828365 0.072858706 0.15137906
-0.05875584 0.096373945 -0.05985134 0.07582874 -0.050682552 -0.043893944 0.035102066 0.099856935
0.00660405 0.11893911 0.081511036 0.020033276 -0.016955685 -0.032395322 0.06254055 0.08445911
0.20943053 0.08520698 0.17929898 -0.10357534 -0.04634583 -0.037513137 -0.09820123 -0.03274557
-0.056051638 0.16912587 0.08022908 -0.10144004 -0.14728484 0.048457984 0.0941975 0.028228195
0.19161372 -0.041512795 0.07805044 0.10335821 -0.032920823 0.17710663 0.18849705 0.054219883
-0.12312787 -0.10472284 -0.07758516 -0.042348552 0.16207737 -0.1622489 -0.12020509 -0.10842135
-0.06860306 -0.120480806 0.16775014 -0.045056943 0.04041251 0.10995528 -0.042192575 0.1811067
0.07949966 -0.16630703 -0.096057564 -0.17453465 -0.107779145 0.01991604 0.087935835 -0.051457874
-0.03945992 0.017004834 0.09080427 -0.15582114 -0.06653807 -0.12182467 -0.112470806 -0.093671605
0.09731262 -0.102430806 0.022337364 0.045984257 -0.14233384 0.1060882 0.0434805 0.06884108
0.16119428 -0.038159188 0.101181306 0.09959426 0.09575571 -0.03980955 0.15141495 0.16742112
0.13217562 -0.022109404 0.12117127 0.051333454 0.06917191 0.17684737 0.031944998 -0.12612006
0.18762898 -0.014023668 -0.03904803 -0.14154609 0.12342976 -0.1232257 0.17273486 0.006942529
-0.07061031 -0.13034858 0.040168546 0.13759722 -0.019287106 -0.013559275 0.08834906 0.116056256
0.04814047 -0.11507642 0.11063806 0.11726408 -0.10737316 0.057036243 0.15086429 0.11759545
-0.14387678 0.07432227 -0.033375 -0.12995665 -0.0112634245 -0.030656395 -0.034811467 0.04889741
0.15829913 0.09831939 0.1719705 0.051041324 0.012049182 0.14722602 0.06438365 -0.11101633
0.067812935 0.07852901 0.07311094 0.10748508 -0.061278455 0.1709612 0.13617666 -0.09946476
0.086028434 -0.02645376 0.04145251 0.045562636 -0.11256155 -0.06972354 -0.11082323 0.035421487
-0.027015889 0.04559623 0.004676789 0.11891638 -0.09364309 -0.014176555 0.16669923 -0.019603476
0.10555262 0.01996491 -0.029274099 0.009975495 0.14805706 -0.038221292 0.08759224 -0.053458843
-0.114912644 0.1641194 0.11143722 -0.011511545 0.12150826 -0.048555348 0.08999957 -0.15889929
-0.01692945 -0.20720667 0.09371827 0.0347331 -0.0073557403 -0.063830644 -0.088714026 -0.14074035
-0.17624484 -0.09437645 -0.14624132 0.015242865 0.14565565 0.014656677 0.18947831 0.022741374
-0.16097802 -0.0644073 -0.11805504 -0.039647575 -0.04756612 -0.15955606 0.05759779 0.005066268
0.11242645 -0.054321524 -0.07715469 -0.06124579 0.16358994 -0.020484455 -0.04772415 0.048042648

fno.2.local_func.bias f4 [32]
00000000: 4980 23be a059 edbd 5b3d ac3d 9ba3 1d3e
00000010: ab90 28bd d3a4 d3bd 5a35 7ebd d96c 0abe
00000020: 1c92 f4bc 9c4f 1f3d 9d03 243e e00e db3d
00000030: 1350 403d fddc 94bd 9878 e53c d4c9 e9bd
00000040: 9601 893c 84e3 e8bb 701b 6b3d 2da0 ca3c
00000050: 3945 2e3e f7a4 c33d d69b c03d b683 203d
00000060: dcd8 a9bd 7451 0bbe 12e1 0c3e 8943 a0bd
00000070: d7ae 14bd 5d32 94bd b34c e5bd 831a e33d
-0.15966906 -0.1158936 0.0841014 0.15394442 -0.04115359 -0.10334172 -0.0620626 -0.13518085
-0.029854827 0.03889428 0.16017003 0.106961966 0.046951365 -0.07268713 0.028011605 -0.11415449
0.016724389 -0.0071072 0.057399213 0.02473458 0.17018594 0.09552949 0.09404723 0.03918811
-0.08293316 -0.1360529 0.13757733 -0.07825381 -0.036299553 -0.072361685 -0.1119627 0.11089041

fno.2.bn.weight f4 [32]
00000000: b4ba 6e3f 7dda 7c3f 5b34 853f c6c6 783f
00000010: f9fb 843f 213f 873f b830 823f bf5c 7d3f
00000020: 4108 7e3f a611 7f3f 08ff 7f3f 5126 783f
00000030: ceba 823f 0216 7c3f 7e53 833f f30c 813f
00000040: cf61 7b3f 1874 7d3f e4f4 7f3f daa2 823f
00000050: 576c 7b3f a339 853f 18d5 7a3f 126f 7a3f
00000060: bbe7 823f e98c 743f d419 7c3f 757b 843f
00000070: f684 793f 8270 833f 2d0a 803f e1b3 843f
0.93253636 0.98770887 1.0406603 0.97178304 1.0389396 1.056614 1.0171118 0.98969644
0.99231344 0.99636304 0.9999852 0.96933466 1.0213258 0.9847108 1.0259855 1.0082077
0.9819612 0.9900527 0.9998305 1.0205948 0.9821219 1.0408214 0.97981405 0.9782573
1.0226969 0.9552751 0.9847691 1.0350176 0.9746851 1.026871 1.0003105 1.0367395

fno.2.bn.bias f4 [32]
00000000: b1ce 9dbd 2056 2dbb f8d7 2e3d 5b46 1e3d
00000010: 764f de3c 3eaf 84bc 805a 8abb 7485 d63c
00000020: de31 44bd 2d85 02bb e4ad 0a3d 7839 03bd
00000030: 7274 5dbc 3457 c13c 7be3 1e3d 3986 6f3c
00000040: 7032 333c bf86 d43c fed8 a4bb eeaa 753c
00000050: a30f 30bc bd37 3a3d 2283 383c b714 f03b
00000060: 8d0a 8f3c 9dc6 21bd 6c3a 52bd a91c 8f3d
00000070: 3f85 a03c 766a 4c3d cf94 9abc 5e6f 293d
-0.07705439 -0.002644904 0.042686433 0.038641315 0.0271375 -0.016196843 -0.004222214 0.026186682
-0.04789912 -0.0019915805 0.03385724 -0.03203723 -0.013516532 0.023601152 0.03879116 0.0146194035
0.010937318 0.025943158 -0.0050307503 0.014994366 -0.010745916 0.045463312 0.011261733 0.007326688
0.017461086 -0.039496053 -0.051325247 0.06987888 0.019594787 0.049906217 -0.018869786 0.041365974

fno.2.bn.running_mean f4 [32]
00000000: e57e 8fbe f5b5 a63e 5217 4e3f 4a5a 42be
00000010: 0dda 023f 2d25 5c3f 5317 2a3f 2a3b 5cbf
00000020: c1b4 213f 9e1a cdbe ec19 3abf 3ea4 ba3e
00000030: 77e4 393f 834d 34bf ec4a c13e 5bd1 0dbe
00000040: 5da3 3bbd 45c3 6bbe 4e0d cbbb f965 ad3e
00000050: e407 fc3e d403 3e3e 2315 78bf fe5a 8abd
00000060: e605 3d3e 428f edbd 1f2f 543f eaae 30bf
00000070: e9cd 163f cc44 343e 9623 083e 18ea 1e3e
-0.280265 0.32560697 0.80504334 -0.18979755 0.5111397 0.85994226 0.6644184 -0.8602778
0.63166434 -0.4005937 -0.72695804 0.36453432 0.72614235 -0.70430773 0.37752473 -0.13849394
-0.045810092 -0.23023708 -0.0061966544 0.3386686 0.4922477 0.18556148 -0.9690725 -0.06755637
0.18459281 -0.1159959 0.828844 -0.690169 0.58907944 0.17604369 0.13294825 0.15518987

fno.2.bn.running_var f4 [32]
00000000: 0224 383f 0804 1b3f 7ad9 843f 554e 3a3f
00000010: 86e5 393f 028d 683f 924a 233f 4f5f e83e
00000020: d6aa 0f3f aa66 1d3f 9a61 343f 8d17 bb3e
00000030: 4219 703f f7cc f73e b307 cc3f f29b 3e3f
00000040: 52e0 013f 7fdc 3c3f ce24 6d3f 2f03 4c3f
00000050: b141 923f 7d88 a33f 2f02 023f 5559 573f
00000060: 95fe 4a3f 2b2c f73e 063b e23e 45f4 903f
00000070: c2e9 623f 0f48 a33f 4589 ee3e cd5a 773f
0.71929944 0.60553026 1.0378869 0.72775775 0.7261585 0.9084016 0.6378566 0.45385215
0.5612005 0.6148478 0.7046143 0.36541405 0.9378854 0.48398563 1.593985 0.74456704
0.5073291 0.7377395 0.92634284 0.7969236 1.1426297 1.2776028 0.5078458 0.84120685
0.7929471 0.48275885 0.44185656 1.1324545 0.88637936 1.2756366 0.46589103 0.96622926

fno.3.local_func.weight f4 [32, 32]
00000000: 5c49 5cbd 9907 de3d 1e28 233e 8c5a 8f3d
00000010: 01da 403d ce80 60be 673c ce3d 4c2b 0f3e
00000020: 3eda c7bd 8ecd 2b3e 8623 4d3c 57ab 39bc
00000030: ab3f 9b3b 26fd 10be ea3d 60be d9ca 8d3c
00000040: 78a4 00be 5e2d 41bd fae4 01be e284 97bc
00000050: 2be7 f13d 68f3 86bd 4744 e7bd 5b4a 1a3e
00000060: add8 52bd 646b a5bd decd 95bd adca 12be
00000070: 06ec 84bc c9c0 263e 0cba 40bd 9fb3 8fbd
00000080: f6fc e83c 03dc b53d 0e4a 2fbe 0de8 c5bc
00000090: 7bb8 823d 7933 efbb 18fc 213d 6b45 ecbd
000000a0: 1da3 dabd 2a2b 2bbe 5ff7 763d f42d 073c
000000b0: 53aa 0b3d cf76 4f3d 327e a63d 8984 88bc
000000c0: 50e2 013e 3dfd 71bc 5616 a83d 5e86 073e
000000d0: e1e8 2d3d 9560 bf3c c213 5c3d 3476 b63b
000000e0: 0ced 1bbe 9874 e63d ae62 633d ba4a 833c
000000f0: 0022 433d 6ea4 1fbe 5ed9 293e e760 153d
00000100: 3809 013e b36c 1e3e 8186 b73d c1a6 39be
00000110: 8494 96bd af93 7f3d 1fa5 2a3e f4a9 abbd
00000120: 6834 4bbe a047 033e c0fc ee3c 67a0 5b3d
00000130: 66f1 02bd 918a a2bc 3ccd 403e 53f3 abbc
00000140: 6d21 e13d 4d9e dcbd 4f45 f8bd a491 3d3d
00000150: e351 92bc dc35 153d 57ec 7e3d 21f4 2bbe
00000160: 0654 da3d ed3b ca3d b6d0 153e c907 83be
00000170: 51a0 2ebe 9c84 13be efd1 083e 3716 90bb
00000180: 26d0 bdbd bf87 b7bd 0f4b b13d 88a7 053e
00000190: 9f52 b4bd 07ef 73bc 4207 2c3d 3d37 e7bc
000001a0: 873c b5bb a5ff 013e 30b7 8b3c d93b 27bd
000001b0: d432 1b3e 8322 f9bd 64fe a4bd 4775 83bd
000001c0: c58b 64bd 217a 2c3c 607b 45be 9582 4ebb
000001d0: fcf6 013e 5d03 f13d 633e c73d e2c7 57bc
000001e0: 1979 123d 5cf6 c0bb e613 cc3d 13f4 133e
000001f0: 6130 05be e7d4 843d 086d 12be 32f1 a43d
00000200: cea0 c8bd a028 2d3b e983 3b3e 2f4c e4bd
00000210: e21d 073e 5281 04be 3cba 1e3e 8545 83bd
00000220: a7a8 5ebe 0a9b 6dbd 2dd5 25bd 76d7 f7bd
00000230: 5489 33be 6ccf 00be 220d 083e 3004 01be
00000240: 362e 68bd 3ead 2b3d 72dd d7bd c854 1d3e
00000250: cb13 fd3c b863 45be e733 413d 89ec c43c
00000260: 977b aabd f12a 10be 6b4f 8b3d 4e67 eabd
00000270: 5ad3 25be d4f0 9bbd ce82 29be a592 9cbc
00000280: 847e 2fbe d415 323e 56aa f23c c082 243e
00000290: 9c85 75bd 5efa 94bd dd66 12be a0d3 89bb
000002a0: 446a 533d bb08 aa3d 8f3b a23d 4205 4a3d
000002b0: 37f0 943d 976e 923d d5bf 8b3d e523 34bc
000002c0: 743a 20be 7e23 f2bc d6a7 cb3c 7c37 a6bd
000002d0: e092 bdbb 9c17 22be f400 5cbc 63b0 b4bc
000002e0: 741d 053e 0103 2abe fa58 883d d8a2 013e
000002f0: 0ff1 983d a29e 1a3c 5dac adbc 739c 343e
00000300: 69f0 2fbe a472 a0bc b42c 7a3d 55bd 863c
00000310: 7d60 5d3d 06c4 33be 8518 cebd 8bac a63d
00000320: e0b0 b0bd c0d7 aebd e101 45bc 8ccd 0539
00000330: 45ad b4bd b626 0dbe 20ff 58be 1e0d 4a3d
00000340: 3d4b 31bd 06ed 33be 8664 0bbe 90aa f3bc
00000350: ac6a f5bd 734c b5bd d8df 043d e08f fc3d
00000360: ea60 e6bd 94c2 073e 9dd3 29be 9d18 1d3e
00000370: 1fe3 a53d 1c38 ba3d 24b3 643d 732e 0ebe
00000380: 21b2 eb3d f02c 58be ca3b 39be 2886 8abc
00000390: 752e 59bd 2ae8 09bd aabe 08bd d238 d0bc
000003a0: b662 11b9 c14a 03be 6ce2 d3bd fdb6 e63d
000003b0: 738b 84bd 2f3f 993d 1d65 03be 97bf 1bbe
000003c0: 1d91 40be e46c 0cbe 564c 733d 1829 123d
000003d0: add1 233e 8d6e 9c3d 8aef b6bd 760c d9bc
000003e0: 2f47 1f3e c707 fc3c 1869 05bd 01a5 31be
000003f0: cd9e 30be 7411 1f3e 18f2 30bc 878d 3dbe
-0.0537809 0.10841293 0.15933272 0.06999692 0.047082905 -0.21924135 0.100701146 0.1398136
-0.09758423 0.16777632 0.0125206765 -0.0113323545 0.0047378144 -0.14159068 -0.21898618 0.01730864
-0.1256274 -0.047162406 -0.12685004 -0.01849598 0.1181167 -0.06589395 -0.1129232 0.15067427
-0.05147617 -0.08077124 -0.07314657 -0.14335127 -0.016225826 0.16284479 -0.047052428 -0.07016682
0.028440934 0.088798545 -0.17118093 -0.024158502 0.06382843 -0.007299837 0.039547056 -0.11536678
-0.10675643 -0.16715685 0.060294505 0.008250702 0.03409798 0.050650414 0.081295386 -0.01666476
0.12683988 -0.014769849 0.08207385 0.13234851 0.04245842 0.023361484 0.05372978 0.00556829
-0.15227145 0.11252707 0.05551403 0.016026843 0.047639847 -0.15590069 0.16586825 0.036469366
0.12601173 0.15471153 0.089612015 -0.18130018 -0.07352546 0.0623967 0.16664551 -0.08382025
-0.1984421 0.12820292 0.029173255 0.05361977 -0.031968497 -0.019841464 0.1882829 -0.02099005
0.109927036 -0.10772381 -0.121225946 0.04628147 -0.017861312 0.036428317 0.06223711 -0.16792347
0.106605574 0.09874711 0.14630398 -0.25591877 -0.17053343 -0.14406055 0.13361333 -0.0043971795
-0.09268217 -0.089614384 0.086568944 0.1305219 -0.08804821 -0.0148885315 0.04199911 -0.028224582
-0.005530897 0.12695177 0.017055124 -0.04082856 0.15156108 -0.12164786 -0.08056334 -0.06418853
-0.055797357 0.010527165 -0.19285345 -0.0031510938 0.12691873 0.117682196 0.09728696 -0.013170214
0.03576002 -0.0058887433 0.09964733 0.14448576 -0.13006736 0.064859204 -0.14299405 0.08053817
-0.09796296 0.002642192 0.18312038 -0.11147343 0.13194993 -0.12939957 0.1550073 -0.06409744
-0.21744023 -0.058009185 -0.040486503 -0.12101643 -0.17532855 -0.12579125 0.1328626 -0.12599254
-0.056684695 0.041913263 -0.10540284 0.15364373 0.030893227 -0.19276321 0.04716864 0.02403857
-0.08324354 -0.14078881 0.06802257 -0.11445485 -0.16193905 -0.07614294 -0.16553804 -0.019112894
-0.17138106 0.1739114 0.029622238 0.16065502 -0.059941873 -0.07274316 -0.14297052 -0.004206136
0.051615015 0.083024465 0.07921516 0.04932142 0.0727238 0.071499996 0.068236984 -0.010994886
-0.15647298 -0.02955794 0.024860304 -0.081160516 -0.005785331 -0.15829319 -0.013427962 -0.022056764
0.12999517 -0.16602708 0.06657596 0.12659776 0.07467853 0.009437235 -0.021200353 0.17637806
-0.17181553 -0.019585915 0.06107779 0.016447702 0.054047097 -0.17555246 -0.100632705 0.08138379
-0.08627486 -0.08537245 -0.012024374 0.0001276044 -0.08822111 -0.13784298 -0.21191072 0.049328916
-0.043284643 -0.17570886 -0.13612565 -0.029744416 -0.11983237 -0.08852472 0.032440037 0.123321295
-0.11248954 0.1325782 -0.1658463 0.1534142 0.080999605 0.09092733 0.055834904 -0.13884906
0.11508585 -0.21110892 -0.18089214 -0.016909674 -0.05302282 -0.033668675 -0.033384956 -0.025417719
-0.0001386505 -0.12821485 -0.10345921 0.11265371 -0.0647191 0.074827544 -0.1283154 -0.15209804
-0.18805356 -0.13713413 0.05939897 0.03568372 0.15997954 0.076382734 -0.08932407 -0.0264952
0.15554498 0.030765427 -0.03257093 -0.173481 -0.17248078 0.15534002 -0.010799907 -0.1851102

fno.3.local_func.bias f4 [32]
00000000: 782d 05be b09a 92bd 3e50 033e dea2 2b3e
00000010: f98d b83d eba0 9a3d 327f 0d3e 279e e93d
00000020: ce52 d3bd 9305 c3bd 92d5 8c3d 20c4 243e
00000030: 1403 1cbd b2be 5f3d d884 27be 6e5d b03c
00000040: 5c7f 08ba 446a 32be 1a32 20be bfaf 263e
00000050: f148 d73d 0c3b aebd 7291 493b 5443 86bd
00000060: df19 0d3e 3170 0b3e 4c20 8c3d 68df 253b
00000070: af33 94bd f5d8 16bc 556f 303e 7943 22be
-0.13005626 -0.071584105 0.12823579 0.16761348 0.09011454 0.07550224 0.13818052 0.11407118
-0.10318528 -0.095225476 0.06876673 0.16090441 -0.038088873 0.05462522 -0.1635927 0.021528926
-0.00052069663 -0.1742335 -0.15644112 0.1627798 0.10511959 -0.08507356 0.0030756858 -0.065558106
0.137794 0.13617016 0.06842098 0.0025310162 -0.0723642 -0.009207 0.1722997 -0.15846051

fno.3.bn.weight f4 [32]
00000000: 4571 723f e294 813f a4b1 7e3f 60ec 713f
00000010: 56f4 743f 680d 733f df4a 733f 9ef1 7e3f
00000020: 99a5 733f 761c 803f 0ab5 803f 83f3 753f
00000030: 5c6a 743f e536 803f da94 713f 95c1 813f
00000040: b2dc 743f a76a 763f e464 733f 9a82 713f
00000050: 54a7 723f 3db9 803f 1d66 7f3f 4b67 723f
00000060: ae2a 753f 4dec 743f 369e 753f 4591 803f
00000070: 100b 733f acf6 733f fd32 813f dc72 753f
0.94704086 1.012356 0.9948981 0.94501305 0.9568533 0.9494233 0.9503612 0.9958743
0.95174557 1.0008686 1.0055249 0.96074694 0.9547479 1.0016752 0.94367754 1.0137202
0.95649254 0.9625649 0.9507582 0.9433991 0.9478657 1.005653 0.9976519 0.9468886
0.9576825 0.95673066 0.95944536 1.0044333 0.94938755 0.95298266 1.0093685 0.95878386

fno.3.bn.bias f4 [32]
00000000: 335a 22bd eba1 e33c 744f 0b3d b3c4 63bd
00000010: 560c 30bd 4c32 3ebd 4a78 1fbd 6665 773c
00000020: ac7c 2dbd d9a3 d63c 9fb9 d53c 2a7e 1ebd
00000030: 656a 30bd 5eff f83c 43bf 33bd 7ca2 d03c
00000040: cd9e 27bd 0196 21bd 8649 1dbd 8c58 2fbd
00000050: 29cf 18bd 85c7 dc3c e107 bf3c 9112 3bbd
00000060: a643 2ebd 5ef9 bebc d846 22bd 53d0 0c3d
00000070: 6e0d 33bd fb24 13bd feac 013d be2e 1ebd
-0.039636802 0.02778717 0.03401132 -0.05560751 -0.042980514 -0.046434686 -0.038933076 0.015099859
-0.042355224 0.026201176 0.026089488 -0.03869454 -0.043070216 0.030395206 -0.043883573 0.025468104
-0.04092293 -0.039449695 -0.038400196 -0.042809054 -0.03730694 0.026950607 0.023319187 -0.045672003
-0.042544983 -0.023312267 -0.039618343 0.03437836 -0.04371398 -0.03592394 0.03165912 -0.038618796

fno.3.bn.running_mean f4 [32]
00000000: 9909 ecbe ee2f 55be 08a2 773e ed4a 403e
00000010: f6dd 0abf 7bcd 883c c2e8 80be c44b 29bf
00000020: d24c 413e c46f 21bf 0d0f 393f 1b7d e1be
00000030: f4b0 a4be 33d6 a9be 3a99 b3bc e7bd 113d
00000040: 4245 1abf 27b9 c73e 85f9 febe 7d6c b9bd
00000050: 6061 88bd 90dd 07bf db71 f8be 7a2e f3be
00000060: df3b 33be 2d15 7fbf 6d23 3ebd d01c a6be
00000070: ac45 c2be d2c4 153e a3b6 f8be 82d8 fdbe
-0.46101072 -0.20819065 0.24182904 0.18778582 -0.54244936 0.016699543 -0.2517758 -0.66131234
0.18876961 -0.63061166 0.7228859 -0.4404076 -0.32166255 -0.33171234 -0.02192365 0.035581496
-0.6026193 0.39008448 -0.49799743 -0.090538956 -0.06659198 -0.5307245 -0.48524365 -0.47496396
-0.17503308 -0.99641687 -0.046420503 -0.32443857 -0.3794378 0.14625862 -0.4857684 -0.49579245

fno.3.bn.running_var f4 [32]
00000000: 83ce 3b3f 3f6c 973f fd4d 943f 4f53 0f3f
00000010: 85c5 a63f 2895 9a3e 93c3 ae3f 1cf3 093f
00000020: 0b3e ca3f fec1 a93f fc8c d13f 8ba8 f63e
00000030: 3a14 003f d336 c83f 526f 323f 90e3 bd3f
00000040: 8471 053f ad5f c33f d5fe 6a3f 8310 4c3f
00000050: 5b81 553f a435 da3f 1d78 893f dcc2 de3e
00000060: 9a44 bc3e 3aa2 b63f 913c 4d3f d815 d63f
00000070: 6612 7c3f bc35 933f a44e d23f 3045 b03f
0.73361987 1.1829909 1.15863 0.55986494 1.3029028 0.30191922 1.3653435 0.5388658
1.5800184 1.3262327 1.637115 0.48175463 0.50030863 1.5641731 0.6970111 1.4835072
0.52126336 1.5263573 0.9179509 0.79712695 0.83400506 1.704762 1.0739781 0.4350804
0.3677109 1.4268258 0.8017054 1.6725416 0.98465574 1.1500773 1.6430249 1.3771114

read_in.weight f4 [32, 2]
00000000: c6c3 973e bb88 5f3b 0774 643e 5335 22bf
00000010: 9e0d 403e 8e3e e63e b732 e03d ce66 893c
00000020: 5aef 163e 068b 01be 4ae9 233f b04c fc3d
00000030: c5e5 f6be 5100 abbe e38e 193d 316a 4dbe
00000040: 5552 bbbd 46a0 3fbc 089b d63e a31b 613e
00000050: 4438 0b3f 2be1 15bf 1f4b e53e 9ce0 9fbe
00000060: 9aa3 013f 11ca 04be 3524 513c 5ea3 debd
00000070: 503d 19bf 3f50 e3be a7d7 eebe 6a96 babe
00000080: 158e 123f 014c d23d 2564 b1be d79b 053f
00000090: 8241 313f 354c 173e 3971 8b3d d52c 28ba
000000a0: bb85 82be 867a 2cbf cdaa 0e3e 74aa 09bf
000000b0: c458 593e fd59 f7be c5e4 373e 8693 bb3e
000000c0: 0b5d 113f b18b 73bd bdfc 3c3e 73e3 28bf
000000d0: c2f7 31be 5024 1ebe 6658 0dbf ad02 9fbe
000000e0: cc1e 1cbf 535c 0ebf 8069 2d3f 5a93 ffbd
000000f0: 1cea 2dbf 625e 223f 72b8 633d 5a4b acbc
0.2964155 0.0034108597 0.22309886 -0.63362616 0.18755195 0.449696 0.10947173 0.016772654
0.14739743 -0.1265069 0.64027846 0.123193145 -0.48222175 -0.3339868 0.037489783 -0.2006004
-0.09146563 -0.011695927 0.41915154 0.21983199 0.5438273 -0.58546704 0.44783875 -0.3122605
0.5064026 -0.12967707 0.01276498 -0.108710036 -0.5985918 -0.4439716 -0.46648905 -0.36442882
0.5724805 0.10268403 -0.34646717 0.5219092 0.6924058 0.14775164 0.06808705 -0.0006415372
-0.25492653 -0.67374456 0.13932343 -0.53775716 0.21225268 -0.48310843 0.17958362 0.3663599
0.567826 -0.059459392 0.18455787 -0.6597206 -0.17379668 -0.1544354 -0.5521301 -0.3105673
-0.6098449 -0.55609626 0.67739105 -0.12479277 -0.6793535 0.63425267 0.055595823 -0.021032024

read_in.bias f4 [32]
00000000: 0bd2 e03e d88b b9bd 116a 2abf f8a1 0e3f
00000010: fde4 26bf 7ebc b63d 4cf9 23bd ba98 08bf
00000020: 3e90 2ebe fd7e f13e 7551 053f 4305 0c3f
00000030: 1a2f c3be 1f98 f7be cf0a ae3e deae 1b3e
00000040: 5fce 273f e9ac 5cbe 13ad 9dbe 1b7c ad3d
00000050: 0b7d 003f 587b 2b3f dcd2 27be 5f64 1f3f
00000060: 8385 bbbe ece3 d1be ed71 0e3f e912 c63b
00000070: 6793 10bf fcb2 8e3c 90c4 3c3e 06d5 213f
0.4391025 -0.09059876 -0.66568094 0.55715895 -0.6519316 0.08922671 -0.04003267 -0.5335804
-0.17047212 0.47167197 0.5207742 0.5469553 -0.38121873 -0.48358247 0.3399262 0.15203425
0.6554927 -0.21550335 -0.30796108 0.08470937 0.501908 0.6698508 -0.1638903 0.6226253
-0.366253 -0.40994203 0.55642587 0.0060447347 -0.5647492 0.01741933 0.18434358 0.6321567

read_out.weight f4 [1, 32]
00000000: 3c27 0d3d 818b 1fbe cc35 26be 23b3 08bb
00000010: 4ab8 bf3d ad42 53ba 8555 a53d d3cc 19bd
00000020: a27b ee3d 95e3 31be 4f50 cdbd b2da 023d
00000030: 0442 f13c 7430 b8bd 22ae c83d 29c0 b0bd
00000040: d1d9 db3c dd6f d63d 742e 003e f958 5c3d
00000050: a496 e13d 4171 d6bd fec5 e9bd a277 993c
00000060: f727 a43c c8a0 9fbc 92ef ca3d 2bed 1cbe
00000070: 6c60 393d 7eaa ff3d 2668 40be b0b0 883d
0.034461245 -0.1558056 -0.1623146 -0.0020858727 0.09361322 -0.00080589467 0.08072952 -0.03754885
0.11644675 -0.17371972 -0.10025083 0.031946845 0.029450424 -0.08993617 0.09798838 -0.08630402
0.026837261 0.10470555 0.1251772 0.05379579 0.110150605 -0.1047082 -0.11414717 0.018733803
0.020038588 -0.019485846 0.09908976 -0.15324847 0.04525797 0.12483691 -0.1878973 0.066743255
